models/emotion_classifier.pt (torch, 90138 bytes, 2 tensors)

weight f4 [6, 400]
000000 e7 8d 08 c1 0c 7c 4b c0 c6 fd 15 c0 2b c1 67 41
       -8.534644 -3.1794462 -2.343614 14.48466
000010 ed 2e c2 40 46 2c 0c 3f 87 5c 19 40 5b 8c 92 c0
       6.0682282 0.54755056 2.3962724 -4.579633
000020 a5 ca e5 c0 4d 92 b4 c0 35 0c 89 bf af e5 c9 3f
       -7.180987 -5.642859 -1.070685 1.5773219
000030 da 70 86 40 f4 9e 8f 3f cf e9 15 40 5c a0 5d 40
       4.201276 1.1220384 2.3423955 3.4629126
000040 10 d1 5f c0 2b 9e bb 40 90 3c dc c0 33 5a 66 bf
       -3.4971352 5.8630576 -6.882393 -0.89981383
000050 d2 46 07 c1 58 6b 45 3f ef b0 65 c0 6b a1 d6 3f
       -8.45479 0.7711692 -3.5889242 1.6768011
000060 7d d5 cb be 40 2e b9 3f 97 0b b1 c0 15 88 b3 3f
       -0.39811316 1.4467239 -5.532665 1.4025904
000070 f5 7e 73 c0 65 20 a0 c0 0b f3 b8 3f ac 80 2e 40
       -3.8046238 -5.0039544 1.4449171 2.7266035
000080 cf 51 c8 be fe 17 54 be e2 8c 32 c0 7d aa 41 c0
       -0.39124915 -0.20712277 -2.7898488 -3.0260308
000090 de 6f 09 c1 bf c5 45 40 8f 9e 3f 40 e9 94 07 41
       -8.589811 3.0901945 2.9940526 8.473855
0000a0 4e 27 bc 40 2f 21 48 3f 71 29 c8 3e 74 f0 48 c0
       5.879798 0.78175634 0.39094117 -3.139676
0000b0 cd cf 0e 41 e8 5b 9a c0 37 9c 73 3b 7a a6 4a 40
       8.925733 -4.823719 0.0037171969 3.166411
0000c0 40 cb 84 40 b7 ec a4 c0 41 37 9b 40 f6 62 09 c0
       4.149811 -5.153896 4.850495 -2.146665
0000d0 90 7e 3f bf 24 7d d1 c0 01 9e ff c0 0a bb 91 40
       -0.74802494 -6.546526 -7.9880376 4.554082
0000e0 52 5d 83 3d 93 0a 97 bf 62 c4 12 3f d6 6c f3 40
       0.06414284 -1.1800102 0.57330906 7.6070356
0000f0 83 7b ab bf 2d c2 7c 40 39 1f 9a c0 9e 5b e8 3f
       -1.3397068 3.9493515 -4.8163114 1.8152959
000100 e5 89 a0 40 92 9a 38 40 29 5c 47 3f 82 dd 34 3f
       5.016833 2.8844342 0.77875 0.70650494
000110 6b ca 86 40 66 17 93 c0 3f db 34 c0 e1 86 25 c0
       4.212209 -4.5966063 -2.8258817 -2.5863574
000120 a9 6a 2c 40 07 09 e6 c0 c5 0e a5 bf f2 e9 56 40
       2.69401 -7.188602 -1.2895132 3.358029
000130 f9 f6 83 40 08 31 04 c1 c3 f0 fb 40 06 02 3c 40
       4.123898 -8.2619705 7.87314 2.9376235
000140 6f 10 5b c0 c2 55 02 40 42 e2 f1 bf 70 36 41 bf
       -3.422878 2.0364842 -1.8897173 -0.7547369
000150 dd a2 50 40 05 07 99 3f 3f 4a 9a 40 a2 ae 06 c1
       3.2599404 1.1955267 4.8215632 -8.417635
000160 dc 71 d7 3e ae 64 1a 40 08 2c 65 40 85 64 cb bf
       0.42079055 2.412395 3.5808125 -1.5890051
000170 0d c9 6e c0 c3 19 16 40 d0 62 05 41 fa aa 76 c0
       -3.7310212 2.3453224 8.336624 -3.8541856
000180 54 cc 35 c1 f8 35 d6 be 08 64 da 3f ca 07 23 41
       -11.362385 -0.4183805 1.7061777 10.189402
000190 25 93 90 be 9f 63 0f 3e 5d 51 27 40 dd 4f 2d c0
       -0.28237262 0.14002846 2.614341 -2.7079995
0001a0 db 87 29 41 71 12 db bf 48 be 85 3f 59 6e 8a c0
       10.595668 -1.7115003 1.0448694 -4.32597
0001b0 26 46 28 40 52 62 65 c0 2f 43 77 c0 67 08 e5 bf
       2.6292815 -3.584126 -3.8634756 -1.7893189
0001c0 bd 25 3f c0 6c 53 aa bf 58 4a 2a 41 77 d3 95 c0
       -2.9866784 -1.3306708 10.64315 -4.6820636
0001d0 44 20 0f 41 82 88 69 c0 68 f8 4c c0 26 6e 78 c0
       8.945377 -3.6489568 -3.2026615 -3.881723
0001e0 54 4c 1d c1 66 4a f3 40 1d 2a de 40 d0 68 0c c0
       -9.831135 7.602832 6.942641 -2.1938972
0001f0 18 49 f6 bf 73 8a 1c c0 fd e4 6a c0 d5 4d 8e 3e
       -1.9241056 -2.4459503 -3.6702263 0.27793756
000200 38 ca 23 bf a9 20 c1 40 67 17 01 41 11 83 62 c0
       -0.63980436 6.035237 8.068213 -3.5392497
000210 e9 33 9d bf ba cf 36 40 34 ec b8 3f 2d c1 b8 bf
       -1.2281467 2.8564286 1.4447083 -1.4433953
000220 cb 03 50 40 dd b7 48 40 d2 00 14 40 ea e0 2d c0
       3.2502315 3.1362221 2.31255 -2.7168527
000230 c8 34 85 3f 00 56 b5 c0 f2 9e f5 c0 56 4e 01 c1
       1.0406733 -5.666748 -7.6756525 -8.081625
000240 2d cd e6 bf fd 84 9d 40 4b 27 d9 be 86 80 88 c0
       -1.8031365 4.922484 -0.4241279 -4.265689
000250 f7 18 d6 bc 47 ec 7c c0 f4 e0 0a 40 81 23 b5 40
       -0.026134951 -3.9519212 2.16998 5.660584
000260 c9 35 bd 40 84 d5 a0 bf 99 53 75 c0 69 18 20 3f
       5.9128156 -1.256516 -3.8332274 0.62537247
000270 35 d2 21 c0 1a d5 03 c0 6d dc a1 3d 67 d9 62 3f
       -2.528455 -2.0598817 0.07903371 0.8861298
000280 d4 eb b5 be 25 c5 2f 40 b1 b2 cf 40 e2 e9 92 c0
       -0.35531485 2.7464077 6.490563 -4.59105
000290 d1 22 86 c0 79 0e 13 c1 16 de 05 c0 28 1b 97 c0
       -4.19175 -9.191033 -2.09168 -4.722065
0002a0 e9 62 02 c0 2a e4 9b bf 42 82 9a c0 ee 20 cf 3e
       -2.037287 -1.2179005 -4.8284006 0.4045481
0002b0 3d 7e df be 44 ce 01 bf 99 dd 16 3c a7 e9 a3 bf
       -0.43651 -0.5070536 0.009208106 -1.280568
0002c0 53 d2 9e 40 24 97 17 c0 61 b7 c3 3f eb 3e 4a c0
       4.9631743 -2.3686 1.5290338 -3.1600902
0002d0 61 ba 5b c0 67 12 33 40 b1 f4 e2 bf ab b0 0b 40
       -3.4332507 2.7979982 -1.7730924 2.182658
0002e0 00 e1 c1 bf 11 4a 7e be 6d 03 12 3f d7 42 22 3e
       -1.514679 -0.24832942 0.5703648 0.1584581
0002f0 54 8d ee c0 63 d4 4c c0 aa f9 29 c0 e0 c2 c4 bf
       -7.454752 -3.200463 -2.6558633 -1.5371971
000300 67 c2 08 40 80 1f 98 c0 ac 2d c8 3f 77 17 3d c0
       2.1368654 -4.753845 1.5638938 -2.9545572
000310 06 07 ca c0 55 b7 22 41 31 3c 34 c0 61 22 c6 c0
       -6.3133574 10.169759 -2.8161738 -6.1916966
000320 e3 26 d2 3f cf 2e ec c0 2a 3e 01 40 7c 52 d6 bf
       1.6418117 -7.380714 2.0194192 -1.6743922
000330 1f 61 98 40 b8 3f c9 bf 73 03 21 c0 dd 10 ab 3f
       4.7618556 -1.572257 -2.5158355 1.3364521
000340 30 0f 33 40 73 df 78 40 7e f0 52 c0 04 bc 02 c1
       2.797802 3.8886383 -3.2959285 -8.170902
000350 34 0d 53 c0 c6 9a 7b 40 6f 53 94 c0 d8 0f ec 40
       -3.2976809 3.9313216 -4.635185 7.376934
000360 1b 63 f9 40 de 1a af 40 35 9b e8 3f fa 3e ae c0
       7.793348 5.4720297 1.8172365 -5.4451876
000370 7d d5 95 3f ce d9 9e 40 65 78 ce bf bc 51 81 bf
       1.1705776 4.9640875 -1.6130491 -1.0103068
000380 ef 78 d3 bf e4 fa db be b8 9f dc 3f 6e 32 06 40
       -1.6521281 -0.42964852 1.7236242 2.096828
000390 fa c6 0f bf 27 f3 08 40 96 1b 02 41 c8 30 a9 3f
       -0.5616299 2.1398408 8.131735 1.3218012
0003a0 ef 6f 18 bf 3f cd 76 3f b8 bb 85 3f 36 d2 1e 41
       -0.595458 0.9640693 1.0447912 9.926321
0003b0 a6 f5 2e 40 b2 8c aa bf 3c 87 25 bf 65 aa 65 bf
       2.7337432 -1.3324187 -0.64659476 -0.89713126
0003c0 6b 5f 53 3f 09 c9 6b 40 76 00 9b 40 8e 8c 7b c0
       0.8256747 3.6841452 4.8438063 -3.9304538
0003d0 4d c7 01 c1 42 54 9a c0 78 d7 6e 3f 74 c0 58 40
       -8.111157 -4.8227854 0.9329753 3.3867464
0003e0 42 40 2a c1 24 22 85 40 81 01 59 c0 d3 c0 68 40
       -10.640688 4.1604176 -3.3907168 3.636769
0003f0 7d c5 05 c1 e7 3a a7 bf 3c ae d4 c0 85 a3 a5 3f
       -8.360715 -1.306485 -6.646269 1.2940527

bias f4 [6]
000000 2e cd 0d 3f b0 6c 32 3f 22 40 e6 3d 9c e3 41 3e
       0.55391204 0.69697094 0.11242701 0.18934482
000010 a4 41 20 3e 7c 75 90 bf
       0.1565004 -1.1285853
